…
[32m[12/06 01:41:10 TiTok]: [0m===================================================================================================================================================================================================
Layer (type:depth-idx)                        Input Shape               Output Shape              Param #                   Param %                   Kernel Shape              Mult-Adds
===================================================================================================================================================================================================
TiTok                                         [1, 3, 256, 256]          [1, 1024, 16, 16]         98,304                      0.06%                   --                        --
├─TiTokEncoder: 1-1                           --                        [1, 12, 1, 128]           296,448                     0.17%                   --                        --
│    └─Conv2d: 2-1                            [1, 3, 256, 256]          [1, 768, 16, 16]          590,592                     0.34%                   [16, 16]                  151,191,552
│    └─LayerNorm: 2-2                         [1, 385, 768]             [1, 385, 768]             1,536                       0.00%                   --                        1,536
│    └─ModuleList: 2-3                        --                        --                        --                             --                   --                        --
│    │    └─ResidualAttentionBlock: 3-1       [385, 1, 768]             [385, 1, 768]             --                             --                   --                        --
│    │    │    └─LayerNorm: 4-1               [385, 1, 768]             [385, 1, 768]             1,536                       0.00%                   --                        591,360
│    │    │    └─MultiheadAttention: 4-2      [385, 1, 768]             [385, 1, 768]             2,362,368                   1.36%                   --                        --
│    │    │    └─LayerNorm: 4-3               [385, 1, 768]             [385, 1, 768]             1,536                       0.00%                   --                        591,360
│    │    │    └─Sequential: 4-4              [385, 1, 768]             [385, 1, 768]             --                             --                   --                        --
│    │    │    │    └─Linear: 5-1             [385, 1, 768]             [385, 1, 3072]            2,362,368                   1.36%                   --                        909,511,680
│    │    │    │    └─GELU: 5-2               [385, 1, 3072]            [385, 1, 3072]            --                             --                   --                        --
│    │    │    │    └─Linear: 5-3             [385, 1, 3072]            [385, 1, 768]             2,360,064                   1.35%                   --                        908,624,640
│    │    └─ResidualAttentionBlock: 3-2       [385, 1, 768]             [385, 1, 768]             --                             --                   --                        --
│    │    │    └─LayerNorm: 4-5               [385, 1, 768]             [385, 1, 768]             1,536                       0.00%                   --                        591,360
│    │    │    └─MultiheadAttention: 4-6      [385, 1, 768]             [385, 1, 768]             2,362,368                   1.36%                   --                        --
│    │    │    └─LayerNorm: 4-7               [385, 1, 768]             [385, 1, 768]             1,536                       0.00%                   --                        591,360
│    │    │    └─Sequential: 4-8              [385, 1, 768]             [385, 1, 768]             --                             --                   --                        --
│    │    │    │    └─Linear: 5-4             [385, 1, 768]             [385, 1, 3072]            2,362,368                   1.36%                   --                        909,511,680
│    │    │    │    └─GELU: 5-5               [385, 1, 3072]            [385, 1, 3072]            --                             --                   --                        --
│    │    │    │    └─Linear: 5-6             [385, 1, 3072]            [385, 1, 768]             2,360,064                   1.35%                   --                        908,624,640
│    │    └─ResidualAttentionBlock: 3-3       [385, 1, 768]             [385, 1, 768]             --                             --                   --                        --
│    │    │    └─LayerNorm: 4-9               [385, 1, 768]             [385, 1, 768]             1,536                       0.00%                   --                        591,360
│    │    │    └─MultiheadAttention: 4-10     [385, 1, 768]             [385, 1, 768]             2,362,368                   1.36%                   --                        --
│    │    │    └─LayerNorm: 4-11              [385, 1, 768]             [385, 1, 768]             1,536                       0.00%                   --                        591,360
│    │    │    └─Sequential: 4-12             [385, 1, 768]             [385, 1, 768]             --                             --                   --                        --
│    │    │    │    └─Linear: 5-7             [385, 1, 768]             [385, 1, 3072]            2,362,368                   1.36%                   --                        909,511,680
│    │    │    │    └─GELU: 5-8               [385, 1, 3072]            [385, 1, 3072]            --                             --                   --                        --
│    │    │    │    └─Linear: 5-9             [385, 1, 3072]            [385, 1, 768]             2,360,064                   1.35%                   --                        908,624,640
│    │    └─ResidualAttentionBlock: 3-4       [385, 1, 768]             [385, 1, 768]             --                             --                   --                        --
│    │    │    └─LayerNorm: 4-13              [385, 1, 768]             [385, 1, 768]             1,536                       0.00%                   --                        591,360
│    │    │    └─MultiheadAttention: 4-14     [385, 1, 768]             [385, 1, 768]             2,362,368                   1.36%                   --                        --
│    │    │    └─LayerNorm: 4-15              [385, 1, 768]             [385, 1, 768]             1,536                       0.00%                   --                        591,360
│    │    │    └─Sequential: 4-16             [385, 1, 768]             [385, 1, 768]             --                             --                   --                        --
│    │    │    │    └─Linear: 5-10            [385, 1, 768]             [385, 1, 3072]            2,362,368                   1.36%                   --                        909,511,680
│    │    │    │    └─GELU: 5-11              [385, 1, 3072]            [385, 1, 3072]            --                             --                   --                        --
│    │    │    │    └─Linear: 5-12            [385, 1, 3072]            [385, 1, 768]             2,360,064                   1.35%                   --                        908,624,640
│    │    └─ResidualAttentionBlock: 3-5       [385, 1, 768]             [385, 1, 768]             --                             --                   --                        --
│    │    │    └─LayerNorm: 4-17              [385, 1, 768]             [385, 1, 768]             1,536                       0.00%                   --                        591,360
│    │    │    └─MultiheadAttention: 4-18     [385, 1, 768]             [385, 1, 768]             2,362,368                   1.36%                   --                        --
│    │    │    └─LayerNorm: 4-19              [385, 1, 768]             [385, 1, 768]             1,536                       0.00%                   --                        591,360
│    │    │    └─Sequential: 4-20             [385, 1, 768]             [385, 1, 768]             --                             --                   --                        --
│    │    │    │    └─Linear: 5-13            [385, 1, 768]             [385, 1, 3072]            2,362,368                   1.36%                   --                        909,511,680
│    │    │    │    └─GELU: 5-14              [385, 1, 3072]            [385, 1, 3072]            --                             --                   --                        --
│    │    │    │    └─Linear: 5-15            [385, 1, 3072]            [385, 1, 768]             2,360,064                   1.35%                   --                        908,624,640
│    │    └─ResidualAttentionBlock: 3-6       [385, 1, 768]             [385, 1, 768]             --                             --                   --                        --
│    │    │    └─LayerNorm: 4-21              [385, 1, 768]             [385, 1, 768]             1,536                       0.00%                   --                        591,360
│    │    │    └─MultiheadAttention: 4-22     [385, 1, 768]             [385, 1, 768]             2,362,368                   1.36%                   --                        --
│    │    │    └─LayerNorm: 4-23              [385, 1, 768]             [385, 1, 768]             1,536                       0.00%                   --                        591,360
│    │    │    └─Sequential: 4-24             [385, 1, 768]             [385, 1, 768]             --                             --                   --                        --
│    │    │    │    └─Linear: 5-16            [385, 1, 768]             [385, 1, 3072]            2,362,368                   1.36%                   --                        909,511,680
│    │    │    │    └─GELU: 5-17              [385, 1, 3072]            [385, 1, 3072]            --                             --                   --                        --
│    │    │    │    └─Linear: 5-18            [385, 1, 3072]            [385, 1, 768]             2,360,064                   1.35%                   --                        908,624,640
│    │    └─ResidualAttentionBlock: 3-7       [385, 1, 768]             [385, 1, 768]             --                             --                   --                        --
│    │    │    └─LayerNorm: 4-25              [385, 1, 768]             [385, 1, 768]             1,536                       0.00%                   --                        591,360
│    │    │    └─MultiheadAttention: 4-26     [385, 1, 768]             [385, 1, 768]             2,362,368                   1.36%                   --                        --
│    │    │    └─LayerNorm: 4-27              [385, 1, 768]             [385, 1, 768]             1,536                       0.00%                   --                        591,360
│    │    │    └─Sequential: 4-28             [385, 1, 768]             [385, 1, 768]             --                             --                   --                        --
│    │    │    │    └─Linear: 5-19            [385, 1, 768]             [385, 1, 3072]            2,362,368                   1.36%                   --                        909,511,680
│    │    │    │    └─GELU: 5-20              [385, 1, 3072]            [385, 1, 3072]            --                             --                   --                        --
│    │    │    │    └─Linear: 5-21            [385, 1, 3072]            [385, 1, 768]             2,360,064                   1.35%                   --                        908,624,640
│    │    └─ResidualAttentionBlock: 3-8       [385, 1, 768]             [385, 1, 768]             --                             --                   --                        --
│    │    │    └─LayerNorm: 4-29              [385, 1, 768]             [385, 1, 768]             1,536                       0.00%                   --                        591,360
│    │    │    └─MultiheadAttention: 4-30     [385, 1, 768]             [385, 1, 768]             2,362,368                   1.36%                   --                        --
│    │    │    └─LayerNorm: 4-31              [385, 1, 768]             [385, 1, 768]             1,536                       0.00%                   --                        591,360
│    │    │    └─Sequential: 4-32             [385, 1, 768]             [385, 1, 768]             --                             --                   --                        --
│    │    │    │    └─Linear: 5-22            [385, 1, 768]             [385, 1, 3072]            2,362,368                   1.36%                   --                        909,511,680
│    │    │    │    └─GELU: 5-23              [385, 1, 3072]            [385, 1, 3072]            --                             --                   --                        --
│    │    │    │    └─Linear: 5-24            [385, 1, 3072]            [385, 1, 768]             2,360,064                   1.35%                   --                        908,624,640
│    │    └─ResidualAttentionBlock: 3-9       [385, 1, 768]             [385, 1, 768]             --                             --                   --                        --
│    │    │    └─LayerNorm: 4-33              [385, 1, 768]             [385, 1, 768]             1,536                       0.00%                   --                        591,360
│    │    │    └─MultiheadAttention: 4-34     [385, 1, 768]             [385, 1, 768]             2,362,368                   1.36%                   --                        --
│    │    │    └─LayerNorm: 4-35              [385, 1, 768]             [385, 1, 768]             1,536                       0.00%                   --                        591,360
│    │    │    └─Sequential: 4-36             [385, 1, 768]             [385, 1, 768]             --                             --                   --                        --
│    │    │    │    └─Linear: 5-25            [385, 1, 768]             [385, 1, 3072]            2,362,368                   1.36%                   --                        909,511,680
│    │    │    │    └─GELU: 5-26              [385, 1, 3072]            [385, 1, 3072]            --                             --                   --                        --
│    │    │    │    └─Linear: 5-27            [385, 1, 3072]            [385, 1, 768]             2,360,064                   1.35%                   --                        908,624,640
│    │    └─ResidualAttentionBlock: 3-10      [385, 1, 768]             [385, 1, 768]             --                             --                   --                        --
│    │    │    └─LayerNorm: 4-37              [385, 1, 768]             [385, 1, 768]             1,536                       0.00%                   --                        591,360
│    │    │    └─MultiheadAttention: 4-38     [385, 1, 768]             [385, 1, 768]             2,362,368                   1.36%                   --                        --
│    │    │    └─LayerNorm: 4-39              [385, 1, 768]             [385, 1, 768]             1,536                       0.00%                   --                        591,360
│    │    │    └─Sequential: 4-40             [385, 1, 768]             [385, 1, 768]             --                             --                   --                        --
│    │    │    │    └─Linear: 5-28            [385, 1, 768]             [385, 1, 3072]            2,362,368                   1.36%                   --                        909,511,680
│    │    │    │    └─GELU: 5-29              [385, 1, 3072]            [385, 1, 3072]            --                             --                   --                        --
│    │    │    │    └─Linear: 5-30            [385, 1, 3072]            [385, 1, 768]             2,360,064                   1.35%                   --                        908,624,640
│    │    └─ResidualAttentionBlock: 3-11      [385, 1, 768]             [385, 1, 768]             --                             --                   --                        --
│    │    │    └─LayerNorm: 4-41              [385, 1, 768]             [385, 1, 768]             1,536                       0.00%                   --                        591,360
│    │    │    └─MultiheadAttention: 4-42     [385, 1, 768]             [385, 1, 768]             2,362,368                   1.36%                   --                        --
│    │    │    └─LayerNorm: 4-43              [385, 1, 768]             [385, 1, 768]             1,536                       0.00%                   --                        591,360
│    │    │    └─Sequential: 4-44             [385, 1, 768]             [385, 1, 768]             --                             --                   --                        --
│    │    │    │    └─Linear: 5-31            [385, 1, 768]             [385, 1, 3072]            2,362,368                   1.36%                   --                        909,511,680
│    │    │    │    └─GELU: 5-32              [385, 1, 3072]            [385, 1, 3072]            --                             --                   --                        --
│    │    │    │    └─Linear: 5-33            [385, 1, 3072]            [385, 1, 768]             2,360,064                   1.35%                   --                        908,624,640
│    │    └─ResidualAttentionBlock: 3-12      [385, 1, 768]             [385, 1, 768]             --                             --                   --                        --
│    │    │    └─LayerNorm: 4-45              [385, 1, 768]             [385, 1, 768]             1,536                       0.00%                   --                        591,360
│    │    │    └─MultiheadAttention: 4-46     [385, 1, 768]             [385, 1, 768]             2,362,368                   1.36%                   --                        --
│    │    │    └─LayerNorm: 4-47              [385, 1, 768]             [385, 1, 768]             1,536                       0.00%                   --                        591,360
│    │    │    └─Sequential: 4-48             [385, 1, 768]             [385, 1, 768]             --                             --                   --                        --
│    │    │    │    └─Linear: 5-34            [385, 1, 768]             [385, 1, 3072]            2,362,368                   1.36%                   --                        909,511,680
│    │    │    │    └─GELU: 5-35              [385, 1, 3072]            [385, 1, 3072]            --                             --                   --                        --
│    │    │    │    └─Linear: 5-36            [385, 1, 3072]            [385, 1, 768]             2,360,064                   1.35%                   --                        908,624,640
│    └─LayerNorm: 2-4                         [1, 128, 768]             [1, 128, 768]             1,536                       0.00%                   --                        1,536
│    └─Conv2d: 2-5                            [1, 768, 128, 1]          [1, 12, 128, 1]           9,228                       0.01%                   [1, 1]                    1,181,184
├─VectorQuantizer: 1-2                        [1, 12, 1, 128]           [1, 12, 1, 128]           --                             --                   --                        --
│    └─Embedding: 2-6                         [128]                     [128, 12]                 49,152                      0.03%                   --                        6,291,456
├─TiTokDecoder: 1-3                           [1, 12, 1, 128]           [1, 1024, 16, 16]         297,216                     0.17%                   --                        --
│    └─Linear: 2-7                            [1, 128, 12]              [1, 128, 768]             9,984                       0.01%                   --                        9,984
│    └─LayerNorm: 2-8                         [1, 385, 768]             [1, 385, 768]             1,536                       0.00%                   --                        1,536
│    └─ModuleList: 2-9                        --                        --                        --                             --                   --                        --
│    │    └─ResidualAttentionBlock: 3-13      [385, 1, 768]             [385, 1, 768]             --                             --                   --                        --
│    │    │    └─LayerNorm: 4-49              [385, 1, 768]             [385, 1, 768]             1,536                       0.00%                   --                        591,360
│    │    │    └─MultiheadAttention: 4-50     [385, 1, 768]             [385, 1, 768]             2,362,368                   1.36%                   --                        --
│    │    │    └─LayerNorm: 4-51              [385, 1, 768]             [385, 1, 768]             1,536                       0.00%                   --                        591,360
│    │    │    └─Sequential: 4-52             [385, 1, 768]             [385, 1, 768]             --                             --                   --                        --
│    │    │    │    └─Linear: 5-37            [385, 1, 768]             [385, 1, 3072]            2,362,368                   1.36%                   --                        909,511,680
│    │    │    │    └─GELU: 5-38              [385, 1, 3072]            [385, 1, 3072]            --                             --                   --                        --
│    │    │    │    └─Linear: 5-39            [385, 1, 3072]            [385, 1, 768]             2,360,064                   1.35%                   --                        908,624,640
│    │    └─ResidualAttentionBlock: 3-14      [385, 1, 768]             [385, 1, 768]             --                             --                   --                        --
│    │    │    └─LayerNorm: 4-53              [385, 1, 768]             [385, 1, 768]             1,536                       0.00%                   --                        591,360
│    │    │    └─MultiheadAttention: 4-54     [385, 1, 768]             [385, 1, 768]             2,362,368                   1.36%                   --                        --
│    │    │    └─LayerNorm: 4-55              [385, 1, 768]             [385, 1, 768]             1,536                       0.00%                   --                        591,360
│    │    │    └─Sequential: 4-56             [385, 1, 768]             [385, 1, 768]             --                             --                   --                        --
│    │    │    │    └─Linear: 5-40            [385, 1, 768]             [385, 1, 3072]            2,362,368                   1.36%                   --                        909,511,680
│    │    │    │    └─GELU: 5-41              [385, 1, 3072]            [385, 1, 3072]            --                             --                   --                        --
│    │    │    │    └─Linear: 5-42            [385, 1, 3072]            [385, 1, 768]             2,360,064                   1.35%                   --                        908,624,640
│    │    └─ResidualAttentionBlock: 3-15      [385, 1, 768]             [385, 1, 768]             --                             --                   --                        --
│    │    │    └─LayerNorm: 4-57              [385, 1, 768]             [385, 1, 768]             1,536                       0.00%                   --                        591,360
│    │    │    └─MultiheadAttention: 4-58     [385, 1, 768]             [385, 1, 768]             2,362,368                   1.36%                   --                        --
│    │    │    └─LayerNorm: 4-59              [385, 1, 768]             [385, 1, 768]             1,536                       0.00%                   --                        591,360
│    │    │    └─Sequential: 4-60             [385, 1, 768]             [385, 1, 768]             --                             --                   --                        --
│    │    │    │    └─Linear: 5-43            [385, 1, 768]             [385, 1, 3072]            2,362,368                   1.36%                   --                        909,511,680
│    │    │    │    └─GELU: 5-44              [385, 1, 3072]            [385, 1, 3072]            --                             --                   --                        --
│    │    │    │    └─Linear: 5-45            [385, 1, 3072]            [385, 1, 768]             2,360,064                   1.35%                   --                        908,624,640
│    │    └─ResidualAttentionBlock: 3-16      [385, 1, 768]             [385, 1, 768]             --                             --                   --                        --
│    │    │    └─LayerNorm: 4-61              [385, 1, 768]             [385, 1, 768]             1,536                       0.00%                   --                        591,360
│    │    │    └─MultiheadAttention: 4-62     [385, 1, 768]             [385, 1, 768]             2,362,368                   1.36%                   --                        --
│    │    │    └─LayerNorm: 4-63              [385, 1, 768]             [385, 1, 768]             1,536                       0.00%                   --                        591,360
│    │    │    └─Sequential: 4-64             [385, 1, 768]             [385, 1, 768]             --                             --                   --                        --
│    │    │    │    └─Linear: 5-46            [385, 1, 768]             [385, 1, 3072]            2,362,368                   1.36%                   --                        909,511,680
│    │    │    │    └─GELU: 5-47              [385, 1, 3072]            [385, 1, 3072]            --                             --                   --                        --
│    │    │    │    └─Linear: 5-48            [385, 1, 3072]            [385, 1, 768]             2,360,064                   1.35%                   --                        908,624,640
│    │    └─ResidualAttentionBlock: 3-17      [385, 1, 768]             [385, 1, 768]             --                             --                   --                        --
│    │    │    └─LayerNorm: 4-65              [385, 1, 768]             [385, 1, 768]             1,536                       0.00%                   --                        591,360
│    │    │    └─MultiheadAttention: 4-66     [385, 1, 768]             [385, 1, 768]             2,362,368                   1.36%                   --                        --
│    │    │    └─LayerNorm: 4-67              [385, 1, 768]             [385, 1, 768]             1,536                       0.00%                   --                        591,360
│    │    │    └─Sequential: 4-68             [385, 1, 768]             [385, 1, 768]             --                             --                   --                        --
│    │    │    │    └─Linear: 5-49            [385, 1, 768]             [385, 1, 3072]            2,362,368                   1.36%                   --                        909,511,680
│    │    │    │    └─GELU: 5-50              [385, 1, 3072]            [385, 1, 3072]            --                             --                   --                        --
│    │    │    │    └─Linear: 5-51            [385, 1, 3072]            [385, 1, 768]             2,360,064                   1.35%                   --                        908,624,640
│    │    └─ResidualAttentionBlock: 3-18      [385, 1, 768]             [385, 1, 768]             --                             --                   --                        --
│    │    │    └─LayerNorm: 4-69              [385, 1, 768]             [385, 1, 768]             1,536                       0.00%                   --                        591,360
│    │    │    └─MultiheadAttention: 4-70     [385, 1, 768]             [385, 1, 768]             2,362,368                   1.36%                   --                        --
│    │    │    └─LayerNorm: 4-71              [385, 1, 768]             [385, 1, 768]             1,536                       0.00%                   --                        591,360
│    │    │    └─Sequential: 4-72             [385, 1, 768]             [385, 1, 768]             --                             --                   --                        --
│    │    │    │    └─Linear: 5-52            [385, 1, 768]             [385, 1, 3072]            2,362,368                   1.36%                   --                        909,511,680
│    │    │    │    └─GELU: 5-53              [385, 1, 3072]            [385, 1, 3072]            --                             --                   --                        --
│    │    │    │    └─Linear: 5-54            [385, 1, 3072]            [385, 1, 768]             2,360,064                   1.35%                   --                        908,624,640
│    │    └─ResidualAttentionBlock: 3-19      [385, 1, 768]             [385, 1, 768]             --                             --                   --                        --
│    │    │    └─LayerNorm: 4-73              [385, 1, 768]             [385, 1, 768]             1,536                       0.00%                   --                        591,360
│    │    │    └─MultiheadAttention: 4-74     [385, 1, 768]             [385, 1, 768]             2,362,368                   1.36%                   --                        --
│    │    │    └─LayerNorm: 4-75              [385, 1, 768]             [385, 1, 768]             1,536                       0.00%                   --                        591,360
│    │    │    └─Sequential: 4-76             [385, 1, 768]             [385, 1, 768]             --                             --                   --                        --
│    │    │    │    └─Linear: 5-55            [385, 1, 768]             [385, 1, 3072]            2,362,368                   1.36%                   --                        909,511,680
│    │    │    │    └─GELU: 5-56              [385, 1, 3072]            [385, 1, 3072]            --                             --                   --                        --
│    │    │    │    └─Linear: 5-57            [385, 1, 3072]            [385, 1, 768]             2,360,064                   1.35%                   --                        908,624,640
│    │    └─ResidualAttentionBlock: 3-20      [385, 1, 768]             [385, 1, 768]             --                             --                   --                        --
│    │    │    └─LayerNorm: 4-77              [385, 1, 768]             [385, 1, 768]             1,536                       0.00%                   --                        591,360
│    │    │    └─MultiheadAttention: 4-78     [385, 1, 768]             [385, 1, 768]             2,362,368                   1.36%                   --                        --
│    │    │    └─LayerNorm: 4-79              [385, 1, 768]             [385, 1, 768]             1,536                       0.00%                   --                        591,360
│    │    │    └─Sequential: 4-80             [385, 1, 768]             [385, 1, 768]             --                             --                   --                        --
│    │    │    │    └─Linear: 5-58            [385, 1, 768]             [385, 1, 3072]            2,362,368                   1.36%                   --                        909,511,680
│    │    │    │    └─GELU: 5-59              [385, 1, 3072]            [385, 1, 3072]            --                             --                   --                        --
│    │    │    │    └─Linear: 5-60            [385, 1, 3072]            [385, 1, 768]             2,360,064                   1.35%                   --                        908,624,640
│    │    └─ResidualAttentionBlock: 3-21      [385, 1, 768]             [385, 1, 768]             --                             --                   --                        --
│    │    │    └─LayerNorm: 4-81              [385, 1, 768]             [385, 1, 768]             1,536                       0.00%                   --                        591,360
│    │    │    └─MultiheadAttention: 4-82     [385, 1, 768]             [385, 1, 768]             2,362,368                   1.36%                   --                        --
│    │    │    └─LayerNorm: 4-83              [385, 1, 768]             [385, 1, 768]             1,536                       0.00%                   --                        591,360
│    │    │    └─Sequential: 4-84             [385, 1, 768]             [385, 1, 768]             --                             --                   --                        --
│    │    │    │    └─Linear: 5-61            [385, 1, 768]             [385, 1, 3072]            2,362,368                   1.36%                   --                        909,511,680
│    │    │    │    └─GELU: 5-62              [385, 1, 3072]            [385, 1, 3072]            --                             --                   --                        --
│    │    │    │    └─Linear: 5-63            [385, 1, 3072]            [385, 1, 768]             2,360,064                   1.35%                   --                        908,624,640
│    │    └─ResidualAttentionBlock: 3-22      [385, 1, 768]             [385, 1, 768]             --                             --                   --                        --
│    │    │    └─LayerNorm: 4-85              [385, 1, 768]             [385, 1, 768]             1,536                       0.00%                   --                        591,360
│    │    │    └─MultiheadAttention: 4-86     [385, 1, 768]             [385, 1, 768]             2,362,368                   1.36%                   --                        --
│    │    │    └─LayerNorm: 4-87              [385, 1, 768]             [385, 1, 768]             1,536                       0.00%                   --                        591,360
│    │    │    └─Sequential: 4-88             [385, 1, 768]             [385, 1, 768]             --                             --                   --                        --
│    │    │    │    └─Linear: 5-64            [385, 1, 768]             [385, 1, 3072]            2,362,368                   1.36%                   --                        909,511,680
│    │    │    │    └─GELU: 5-65              [385, 1, 3072]            [385, 1, 3072]            --                             --                   --                        --
│    │    │    │    └─Linear: 5-66            [385, 1, 3072]            [385, 1, 768]             2,360,064                   1.35%                   --                        908,624,640
│    │    └─ResidualAttentionBlock: 3-23      [385, 1, 768]             [385, 1, 768]             --                             --                   --                        --
│    │    │    └─LayerNorm: 4-89              [385, 1, 768]             [385, 1, 768]             1,536                       0.00%                   --                        591,360
│    │    │    └─MultiheadAttention: 4-90     [385, 1, 768]             [385, 1, 768]             2,362,368                   1.36%                   --                        --
│    │    │    └─LayerNorm: 4-91              [385, 1, 768]             [385, 1, 768]             1,536                       0.00%                   --                        591,360
│    │    │    └─Sequential: 4-92             [385, 1, 768]             [385, 1, 768]             --                             --                   --                        --
│    │    │    │    └─Linear: 5-67            [385, 1, 768]             [385, 1, 3072]            2,362,368                   1.36%                   --                        909,511,680
│    │    │    │    └─GELU: 5-68              [385, 1, 3072]            [385, 1, 3072]            --                             --                   --                        --
│    │    │    │    └─Linear: 5-69            [385, 1, 3072]            [385, 1, 768]             2,360,064                   1.35%                   --                        908,624,640
│    │    └─ResidualAttentionBlock: 3-24      [385, 1, 768]             [385, 1, 768]             --                             --                   --                        --
│    │    │    └─LayerNorm: 4-93              [385, 1, 768]             [385, 1, 768]             1,536                       0.00%                   --                        591,360
│    │    │    └─MultiheadAttention: 4-94     [385, 1, 768]             [385, 1, 768]             2,362,368                   1.36%                   --                        --
│    │    │    └─LayerNorm: 4-95              [385, 1, 768]             [385, 1, 768]             1,536                       0.00%                   --                        591,360
│    │    │    └─Sequential: 4-96             [385, 1, 768]             [385, 1, 768]             --                             --                   --                        --
│    │    │    │    └─Linear: 5-70            [385, 1, 768]             [385, 1, 3072]            2,362,368                   1.36%                   --                        909,511,680
│    │    │    │    └─GELU: 5-71              [385, 1, 3072]            [385, 1, 3072]            --                             --                   --                        --
│    │    │    │    └─Linear: 5-72            [385, 1, 3072]            [385, 1, 768]             2,360,064                   1.35%                   --                        908,624,640
│    └─LayerNorm: 2-10                        [1, 256, 768]             [1, 256, 768]             1,536                       0.00%                   --                        1,536
│    └─Sequential: 2-11                       [1, 768, 16, 16]          [1, 1024, 16, 16]         --                             --                   --                        --
│    │    └─Conv2d: 3-25                      [1, 768, 16, 16]          [1, 1536, 16, 16]         1,181,184                   0.68%                   [1, 1]                    302,383,104
│    │    └─Tanh: 3-26                        [1, 1536, 16, 16]         [1, 1536, 16, 16]         --                             --                   --                        --
│    │    └─Conv2d: 3-27                      [1, 1536, 16, 16]         [1, 1024, 16, 16]         1,573,888                   0.90%                   [1, 1]                    402,915,328
│    └─Identity: 2-12                         [1, 1024, 16, 16]         [1, 1024, 16, 16]         --                             --                   --                        --
===================================================================================================================================================================================================
Total params: 174,221,068
Trainable params: 174,221,068
Non-trainable params: 0
Total mult-adds (G): 44.53
===================================================================================================================================================================================================
…
